…
ading a pre-trained model, which can be easily done using Torchvision’s library of models. There, we find AlexNet, a PyTorch model that implements the architecture designed by Alex Krizhevsky et al., and alexnet, a helper function that creates an instance of AlexNet and, optionally, downloads and loads its pre-trained weights. Pre-Trained Model We’ll start by creating an instance of AlexNet without loading its pre-trained weights just yet: Loading AlexNet Architecture 1 alex = alexnet(pretrained=False) 2 print(alex) Transfer Learning in Practice | 505 Output AlexNet( (features): Sequential( (0): Conv2d(3, 64, kernel_size=(11, 11), stride=(4, 4), padding =(2, 2)) (1): ReLU(inplace=True) (2): MaxPool2d(kernel_size=3, stride=2, padding=0, dilation=1, ceil_mode=False) (3): Conv2d(64, 192, kernel_size=(5, 5), stride=(1, 1), padding =(2, 2)) (4): ReLU(inplace=True) (5): MaxPool2d(kernel_size=3, stride=2, padding=0, dilation=1, ceil_mode=False) (6): Conv2d(192, 384, kernel_size=(3, 3), stride=(1, 1), padding=(1, 1)) (7): ReLU(inplace=True) (8): Conv2d(384, 256, kernel_size=(3, 3), stride=(1, 1), padding=(1, 1)) (9): ReLU(inplace=True) (10): Conv2d(256, 256, kernel_size=(3, 3), stride=(1, 1), padding=(1, 1)) (11): ReLU(inplace=True) (12): MaxPool2d(kernel_size=3, stride=2, padding=0, dilation=1, ceil_mode=False) ) (avgpool): AdaptiveAvgPool2d(output_size=(6, 6)) (classifier): Sequential( (0): Dropout(p=0.5, inplace=False) (1): Linear(in_features=9216, out_features=4096, bias=True) (2): ReLU(inplace=True) (3): Dropout(p=0.5, inplace=False) (4): Linear(in_features=4096, out_features=4096, bias=True) (5): ReLU(inplace=True) (6): Linear(in_features=4096, out_features=1000, bias=True) ) ) AlexNet’s architecture has three main elements: features, avgpool, and classifier. The first and last are nested sequential models. The featurizer contains five typical convolutional blocks, and the classifier has two hidden layers using 50% 506 | Chapter 7: Transfer Learning dropout. You’re already familiar with all of this, except for the eleme
…
ke that. Its main arguments are the number of features, the number of layers, the number of hidden units per layer, the activation function to be placed after each hidden layer, and if it should add a batch normalization layer after every activation function or not: Vanishing and Exploding Gradients | 563 Model Configuration (1) 1 torch.manual_seed(11) 2 n_features = X.shape[1] 3 n_layers = 5 4 hidden_units = 100 5 activation_fn = nn.ReLU 6 model = build_model( 7 n_features, n_layers, hidden_units, 8 activation_fn, use_bn=False 9 ) Let’s check the model out: print(model) Output Sequential( (h1): Linear(in_features=10, out_features=100, bias=True) (a1): ReLU() (h2): Linear(in_features=100, out_features=100, bias=True) (a2): ReLU() (h3): Linear(in_features=100, out_features=100, bias=True) (a3): ReLU() (h4): Linear(in_features=100, out_features=100, bias=True) (a4): ReLU() (h5): Linear(in_features=100, out_features=100, bias=True) (a5): ReLU() (o): Linear(in_features=100, out_features=1, bias=True) ) Exactly as expected! The layers are labeled sequentially, from one up to the number of layers, and have prefixes according to their roles: h for linear layers, a for activation functions, bn for batch normalization layers, and o for the last (output) layer. We’re only missing a loss function and an optimizer, and then we’re done with the model configur
…
